app/src/main/assets/mymodel.tflite (tflite, 210816 bytes, 10 tensors)

sequential_2/conv2d_6/Conv2D/ReadVariableOp f4 [32, 3, 3, 3]
00000000: fc6a f43e 6ecf cb3e 3420 be3e e7b5 873e
00000010: b11d 733e f3a0 6e3e ee12 993e f76e 113e
00000020: 1c45 983e 376b 933e 5b24 013e c7d3 933e
00000030: 7aca 6d3d 8adb 9abc 4b9e 1fbe e9b7 a9bd
00000040: 8526 79bd d597 163d 82e8 953e 2779 de3d
00000050: 5020 933e 1901 953d 9160 e1bd 835d bcbd
00000060: 422c 9f3d 92e3 90bd a66f f7bc 21ce 7fbe
00000070: f332 16be ed8c 0cbe 7d14 6cbe 012f 59be
00000080: b5ec a1bd 6ac9 eabd 7136 1bbd 6ee5 aebd
00000090: fbb3 b0bd 0b8e 63bc d2b7 11bd ea05 afbd
000000a0: ba31 febd ec34 5fbb 19e6 7cbc e508 2b3e
000000b0: 17a0 dd3c b791 133c 54a1 243e ecfd 173e
000000c0: e9a3 e33d 292b aebb e5be 063d 6a15 983e
000000d0: a673 8f3e 4ae4 8e3e 97b1 e43d 4b0c 2ebd
000000e0: 6fb7 abbc 198c 063d 425f a03d 1206 953c
000000f0: 3cf9 e9bb af8d cfbc a149 96bd de7f 89bd
00000100: 761c d7bd 1808 9abd 6779 283d f6e5 95bd
00000110: 3790 7c3d 487c dcbd 4b9e 433c 30c2 c4bd
00000120: fe0c 1a3d b6d0 163d 06d8 2ebd 4b16 843d
00000130: ac67 393d e702 bebd b3b3 023d 8759 10be
00000140: 5395 c63d 368c 7a3d 89b9 ec39 3a08 a8bd
00000150: 0c1d b63d 7d29 03bb 0aca 51bb 1539 35bd
00000160: 2e15 8d3d 9bf4 4dbd 2358 a8bd a9c3 aabd
00000170: 73ee a43d eb4f 453d cc05 d3bd dce0 c0bd
00000180: ae27 bcbd 5890 abbd e46b d7bc 5cdd e8bd
00000190: 4b5f 70bd bb1c 2cbd 9a4f 13bd 8d7f ab3d
000001a0: 26d9 963c f0b7 95bd a8a0 65bd 069b 32bd
000001b0: d65c 25be c3c8 90be acc1 58be f896 06be
000001c0: 932b 7ebd 90b6 d2bd b564 e0bc 2bb2 193e
000001d0: 35c2 eebc 0f26 87be 5f13 d9bd 74b3 84bd
000001e0: 8456 7fbd f15e 4e3b 35c7 8f3d 59ee 353e
000001f0: 5d3a 933e 6332 933e 4a26 2ebe e83f 7bbe
00000200: 6ede 77be 9f1a 6c3d b528 caba 56c2 93bc
00000210: 36e7 9a3e affa 7f3e dce9 b53e 1df3 843d
00000220: 99e2 fabd 484b 62bd b9e5 03be cf79 53bd
00000230: 5f5c b2bd 8467 d5bc e076 353d 8842 723d
00000240: f430 b7bc 8c44 02be 1bb4 d73d fb33 febd
00000250: ae13 5d3d cfe5 dabd 896d e4bd 6974 8ebd
00000260: fbf9 60bd 4f59 c1bc d244 91bd 63df 57bd
00000270: fc2e 4d3d d92f d1bd f91d f83d 1930 df3c
00000280: 0515 003e e8e7 e4bd c33a e2bd ab5f 953d
00000290: 3bbf 6bbd b70f fb3c 6d04 29bd f390 523d
000002a0: f88a 26be 5998 1abe 59c7 d5bc 88d8 353e
000002b0: 5be3 d9bb 5438 d63d 25ad 44bd a1d0 21be
000002c0: a3d6 783d 7ac3 1cbe e47a 07be 2cce 66be
000002d0: b3da 233e 4ec2 0e3e 08e6 803e cb57 b03c
000002e0: 3c80 5e3c 2901 013e 16fe f6bd 2b11 773d
000002f0: 1cb6 93bd 0215 d83b 0fa1 a73d 88c8 873d
00000300: d2c8 bcbd 1f02 023d 70bf eabd 9b10 093d
00000310: 4707 bdbd 81f0 b73d 7294 abbd 563a bc3d
00000320: fa8f 1f3e d488 bf3d e2ed 163e a030 a23d
00000330: c4ee c3bd 2679 b83d 8824 233e 85f5 0bbe
00000340: 1dd0 0fbe 3168 0dbe 71e7 8abd 892f 2fbd
00000350: a95e 9d3d 9d8f 6fbd d6cf a23c 38d3 1bbe
00000360: 9c19 613d f21b ea3d de95 353d db37 023e
00000370: 1067 b73d e5ab 113e 2ea5 b23d e0db 90bd
00000380: ec57 c23d cb1d 89bd 75a8 c13c 67bc fcbd
00000390: 99e3 fabc 341e d1bd d876 a63d a381 b4bd
000003a0: 35e6 30ba 7b27 343d d457 7ebd 20c1 0abe
000003b0: ee7a 91bd 8fcd 0bbe be17 f8bd bba1 ae3c
000003c0: e59b 8ebd fb6d 4c3d ef78 4b3b f87c 4fbd
000003d0: 13fd 00be a078 d7bd b3ff 77bd 1330 24bd
000003e0: a35c 443d be44 3d3c bb8d 8ebd c0d8 f5bd
000003f0: 14c9 e9bd 9ed8 2bbb bcd1 ca3d 0fd5 a8bd
0.47737873 0.39806694 0.37133944 0.26505968 0.23741795 0.23303585 0.29897255 0.14202486
0.29740226 0.28792736 0.12611525 0.2887251 0.058054425 -0.018903513 -0.15587728 -0.08287031
-0.06082775 0.036765892 0.29278952 0.10862952 0.2873559 0.072756 -0.11004747 -0.091975234
0.077721134 -0.070746556 -0.030204605 -0.24980976 -0.14667873 -0.13725634 -0.2305469 -0.21209337
-0.079064764 -0.11464198 -0.037893716 -0.08539854 -0.086280786 -0.013888846 -0.035575695 -0.0854605
-0.12411828 -0.0034058644 -0.015435719 0.16702612 0.027053876 0.009006909 0.16077167 0.14842957
0.11115248 -0.0053152037 0.032896895 0.29703838 0.2801792 0.27908546 0.11166685 -0.042492192
-0.020961491 0.03284845 0.07830669 0.018191371 -0.0071403068 -0.025336115 -0.07338262 -0.06713842
-0.10503475 -0.07521075 0.041131403 -0.07319252 0.06166097 -0.10765892 0.011939595 -0.09607351
0.037610047 0.036820136 -0.042686485 0.064495645 0.045264885 -0.09277897 0.031909656 -0.14096652
0.0969645 0.06116887 0.00045151662 -0.08204694 0.08892259 -0.0020013743 -0.0032011294 -0.04424389
0.06888805 -0.050282102 -0.08219936 -0.083381005 0.08053293 0.04817192 -0.1030384 -0.094178885
-0.09187256 -0.08377141 -0.026296563 -0.11370346 -0.05868463 -0.042019587 -0.035964586 0.08373938
0.018414091 -0.07310474 -0.056061417 -0.043604873 -0.16148695 -0.2827817 -0.2116763 -0.13143528
-0.062053274 -0.10288727 -0.02739177 0.15009372 -0.02914534 -0.26396224 -0.10599398 -0.064795405
-0.062338367 0.0031489695 0.070204176 0.17766704 0.28755465 0.2874938 -0.17006794 -0.24536097
-0.24205944 0.057642575 -0.0015423509 -0.018037003 0.30254525 0.24997972 0.35529983 0.06491683
-0.12250251 -0.055247575 -0.12880601 -0.051629838 -0.08709025 -0.026050337 0.04430282 0.05914548
-0.02236221 -0.12721461 0.10532399 -0.12412258 0.053973846 -0.10688364 -0.11153705 -0.06955797
-0.0549259 -0.023602156 -0.070932046 -0.052703273 0.050093636 -0.10214204 0.12115092 0.027244614
0.12508018 -0.11177045 -0.11046364 0.07293638 -0.05755542 0.030647142 -0.041263986 0.051407766
-0.1626395 -0.15097179 -0.026096033 0.17758381 -0.0066494173 0.104599625 -0.048016686 -0.15802242
0.06075157 -0.15308943 -0.13230473 -0.22539586 0.16001396 0.13941309 0.251755 0.021526238
0.013580378 0.12598099 -0.12060182 0.060319107 -0.07212469 0.006594301 0.08185016 0.06630045
-0.09217991 0.031740304 -0.11462295 0.0334631 -0.09229904 0.08981419 -0.08377923 0.09190814
0.15582266 0.0935227 0.14739183 0.07919431 -0.09567025 0.09007482 0.15931904 -0.13667877
-0.14044233 -0.13809277 -0.06782425 -0.042769942 0.076840706 -0.05848657 0.019874495 -0.15217292
0.054956064 0.114311114 0.044332378 0.1271662 0.089552045 0.14225729 0.08722912 -0.07073188
0.09489426 -0.06695136 0.023639897 -0.123406224 -0.030626105 -0.10210839 0.081281364 -0.08813789
-0.00067481707 0.043982964 -0.06209548 -0.13550234 -0.07103525 -0.13652633 -0.121139035 0.021317353
-0.06963328 0.049909573 0.0031047424 -0.05065629 -0.1259654 -0.10521054 -0.06054659 -0.04008491
0.047939908 0.011552034 -0.06960627 -0.120042324 -0.11415306 -0.0026221643 0.09903285 -0.08243763

sequential_2/conv2d_6/Conv2D_bias f4 [32]
00000000: 4089 7a3a 8df8 133e 002e f5bc c788 3bbc
00000010: 53a6 6e3e 3615 3f3d b9bb 413e 86e3 ccb8
00000020: 0d6f c73d 0f65 a93b 0a33 3fb9 c4fe 4bba
00000030: 6e31 1d3c 55c4 df3a a91d 913f f4f9 c93a
00000040: 377f 47b7 278e 693d 449d 043a cf33 a3bb
00000050: 5c3f d43e e46d d73e ac05 ab3f 5701 e83d
00000060: 2f34 19b8 36a8 f7bc ac1e 9b3b 805e 5cb9
00000070: c03b b73a 745c 0f38 9c5b 9739 cab0 1d3f
0.0009557195 0.14450283 -0.029929161 -0.0114461845 0.23305635 0.046651088 0.18919267 -9.7698576e-05
0.09737978 0.005169518 -0.00018234193 -0.00077817985 0.0095943045 0.0017072061 1.1337177 0.0015409575
-1.1890944e-05 0.057020333 0.0005058835 -0.0049805413 0.4145459 0.42076027 1.3361106 0.113283806
-3.6526642e-05 -0.030231576 0.004733881 -0.00021016039 0.0013979599 3.417996e-05 0.0002886922 0.61597884

sequential_2/conv2d_7/Conv2D/ReadVariableOp f4 [32, 3, 3, 32]
00000000: 2550 863e a0d3 bd3d 4fbb a8bd 0574 9c3d
00000010: 5a7d 083d c4e4 55bc 0013 b53d 707e e13c
00000020: d799 703d a5d2 bdbd 6c51 073e b599 053d
00000030: d055 353e 629b 333e c5fb e2bd b2dd 993e
00000040: 385f 813c 2583 113d f654 df3d f3d5 73bd
00000050: 32c8 0cbe 35e0 313e dbf8 23be a5af 2c3d
00000060: a006 97bc f69c 80bd 328e 713e 004d 963d
00000070: 885a 963e bf58 d73d 309e a03e 34c3 e6bd
00000080: 2682 8d3e 6974 be3c bdd6 993d 2096 123d
00000090: a2bb 21bd 1ff8 2d3d 499f 363c 8d5e 4abd
000000a0: c434 463d b425 553d 5ebe 0f3e 826a 133d
000000b0: 4cd5 6c3c 6871 623e 1751 7fbc f441 aa3e
000000c0: 4360 133d 90a2 413d 4836 6e3d b570 a93d
000000d0: 42a3 d4bd baf0 943c 7673 3739 a7ad 7fbc
000000e0: c7dc ab3d c097 b8bd 0cca 863e 4eaa de3d
000000f0: 53b0 563e 1571 083e 9694 7e3e eef9 8d3d
00000100: 2972 83bb d14d b73d f1d2 c1bc be16 b53d
00000110: f2f4 4b3d 7c68 a63d 5123 9e3d c9da 38bd
00000120: 62ee 0abd 5d11 4f3d 6a60 4b3c 719f 08bd
00000130: b3b5 06bd 7b83 363d 1938 1bbd 3cea 0c3e
00000140: bf23 b8bd 62eb c83b 6e5b c3bc 2596 7d3d
00000150: 8a0a 8b3d 4b2e 253e fc81 38bd d7b5 2ebd
00000160: 5204 cdbd 236e 863c 4624 3a3e 0fbf e83d
00000170: 0ed3 a7bc 7a38 8b3d 87a0 443e d734 12bc
00000180: fb95 fbbc f0c0 8fbd 7b2f 72bd 2b18 523d
00000190: ed52 edbc a597 9bbd 5d05 d6bc 6ce5 50bd
000001a0: d26b 8c3d 048d 0dbd 398b 093e 6a5c aebd
000001b0: bd6a dc3d c6b4 3abe b576 edbd 00ca 65be
000001c0: e4a2 a3ba 507d cd3c 5c1b 873c 8e1b a23d
000001d0: 9ef9 c7bd 39ff 153e e0e5 963c 97d5 773d
000001e0: 03e5 75bc 1208 b13d ffee b0be 584b 3b3c
000001f0: 9a78 a8bd 9d66 603d 9d59 1fbe 788f b3bd
00000200: eb9b 93bd 1b91 4cbd 27d6 12bb 1a2a 35bd
00000210: 95c6 e13d 4949 9ebd 6faf 9d3c 6084 f8bd
00000220: 5e1a 66bc 6524 e83c 1ea1 80bc cd21 babd
00000230: 0c20 f6bd 215b 4abe 3bd6 083e b20c 59be
00000240: 93e5 95bd 07c9 683b 0b9d 873c fa7a 60bd
00000250: 2207 33bd d818 d0bd 04c1 823d 02c8 673c
00000260: ed48 b7bd f6e8 92bd 61bc 76be 3ae2 cfbc
00000270: 65f2 8fbd 3f03 693d fd3c a8be dc81 a13d
00000280: 8f38 15be 1092 903d 6b5e 8b3d 1be7 983d
00000290: 6724 8abd 3499 ab3d e09c 093d 89ac 37bd
000002a0: 56d3 b03d e12e 593d dc48 7f3d 1e7f 2bbd
000002b0: 9978 193c 2811 37be 06e2 a43d d2ef efbd
000002c0: 9a1e b6bd 2bfd 9fbc c95d 89bd 00b6 353d
000002d0: b92e b13d 3be3 30bb 0553 21bc a9f0 5d3d
000002e0: 8154 c43d e2a6 e1bc e024 4dbe 72c0 bebd
000002f0: 743b 21be 42bb 3d3d 4b9d 80be ce38 183d
00000300: e956 d3bd 689c 66bc 7912 91bc 8e83 92bd
00000310: 3d58 ccbd 7120 cbbd 5001 f9bc 5874 59bd
00000320: 7068 9a3d 64eb b9bd 73eb 963c 7e4b b13d
00000330: 9289 32bd 9af1 cabb a8e3 5b3d 21b4 8fbd
00000340: df04 7abd dd87 00bd 4349 32bd 7c49 1a3d
00000350: 2f39 933c 8b74 c13c 8071 383d 658c 7fbd
00000360: 7926 a7bd face 753d 6dca e4bd 1068 63bd
00000370: 6e17 abbd daed 09bc c089 87bd 214a bd3d
00000380: fc30 efbd f67b d8bc 3821 6e3d 3122 b03c
00000390: 9180 a13c 0f01 bbbd 1059 a5bc e3fe 6b3d
000003a0: df59 6cbd 82fe c03d b1db 9bbd d6bf ce3c
000003b0: 3bad 8ebd ee41 d5bd b63f 563d 81b0 08be
000003c0: 5019 803d e787 68bd b1ee 2bbd 33b0 693d
000003d0: 1a75 90bd ec50 123d 27e6 c3bc 42e8 85ba
000003e0: 4d67 60bc 96c8 afbc 9ded 12bd 8d8e 84bc
000003f0: bec4 92bc 8ada 6f3d eed4 c4bd 22bb c23d
0.2623302 0.0926888 -0.08238851 0.076393165 0.03332267 -0.01305503 0.088415146 0.02752611
0.058740463 -0.09268693 0.13214654 0.03261729 0.17708516 0.17539743 -0.110831775 0.30051953
0.015792474 0.03552546 0.10904877 -0.05953021 -0.13748243 0.17370684 -0.160129 0.042159695
-0.018435776 -0.06279938 0.235894 0.07338905 0.29365945 0.10514974 0.31370687 -0.11267701
0.27638358 0.023248868 0.07511661 0.0357877 -0.03948558 0.042472955 0.011146375 -0.049406577
0.048390165 0.05203791 0.14037463 0.035990246 0.014455151 0.22113574 -0.015583298 0.33253443
0.035980474 0.047274172 0.058157235 0.0827345 -0.103827015 0.018181194 0.00017495253 -0.015605367
0.08391719 -0.09013319 0.26326025 0.10872327 0.209657 0.13324387 0.24861369 0.06932436
-0.0040114117 0.08950389 -0.023660155 0.08842228 0.049794145 0.081253976 0.0772158 -0.045130525
-0.033918746 0.05055367 0.012413124 -0.03335518 -0.032888126 0.044558983 -0.037895296 0.13761228
-0.08991193 0.0061315754 -0.023847308 0.061910767 0.067891195 0.1613094 -0.045045838 -0.042653885
-0.1001059 0.01640994 0.181779 0.113645665 -0.02048638 0.067978814 0.19201861 -0.008923731
-0.030711165 -0.07019222 -0.059127312 0.05129258 -0.028970206 -0.07597283 -0.026125604 -0.051000044
0.068565026 -0.03455831 0.13432015 -0.0851372 0.10762546 -0.18233022 -0.11594907 -0.22440338
-0.0012484458 0.025084168 0.016492538 0.07915412 -0.097644076 0.14648141 0.01842016 0.06050643
-0.015008214 0.086441174 -0.3455734 0.011431538 -0.08226128 0.05478536 -0.15561529 -0.08767599
-0.07207473 -0.04994307 -0.0022405477 -0.044229604 0.11024205 -0.07728822 0.019248692 -0.121346235
-0.014044372 0.028337667 -0.015701827 -0.09088478 -0.12017831 -0.19761325 0.13362972 -0.21196249
-0.073191784 0.0035520212 0.016554376 -0.05480478 -0.043707974 -0.101609886 0.06384471 0.014146807
-0.08949456 -0.0717334 -0.24095298 -0.025376428 -0.07028655 0.05688786 -0.3285903 0.07886097
-0.14572357 0.07059109 0.06805118 0.07465955 -0.067452244 0.083788306 0.033596873 -0.044842277
0.08634059 0.053023223 0.062325343 -0.041869275 0.009367132 -0.17877638 0.08050923 -0.11715664
-0.088925555 -0.0195299 -0.06707341 0.04436302 0.0865149 -0.0026990909 -0.009846454 0.05418459
0.0958643 -0.027545396 -0.20033598 -0.0931405 -0.15745336 0.04632116 -0.25120005 0.03716355
-0.10319311 -0.014075376 -0.017709004 -0.07153998 -0.099777676 -0.09918297 -0.030396134 -0.05308947
0.07539451 -0.090781 0.018422818 0.08656977 -0.04358823 -0.006193352 0.053683907 -0.07016779
-0.0610398 -0.03137957 -0.0435269 0.037667736 0.017971603 0.023615142 0.045030117 -0.06238975
-0.08161635 0.06001184 -0.11171422 -0.055519164 -0.08354078 -0.008418525 -0.066180706 0.092426546
-0.11679265 -0.026426297 0.05813715 0.021500679 0.019714626 -0.09131061 -0.02018407 0.057616126
-0.057702895 0.094235435 -0.07610262 0.025237959 -0.06966635 -0.10412966 0.052306853 -0.13348581
0.06254828 -0.05677023 -0.04197568 0.057052802 -0.07053585 0.035721704 -0.023913456 -0.0010216313
-0.013696504 -0.021457952 -0.035871137 -0.016181255 -0.01791608 0.058558024 -0.096109256 0.09508349

sequential_2/conv2d_7/Conv2D_bias f4 [32]
00000000: 591d 9bbd 05da 523d 1446 0fbb 74b4 253c
00000010: bc53 6abd 1466 dcbd aac1 09ba 6d8f 88bd
00000020: bd72 1ebc f5f1 ee3c 1066 28bc 2fbc b3bd
00000030: 6399 a13b 7df6 97bd 4e34 a8bd 2de3 343d
00000040: b4d6 1abd 80ff 6dbd 4e0d 08bd e66a c2bc
00000050: 8d7d e4bc 2e0b 843d eb5c 68bd c81f 99bd
00000060: 8331 79bd 7179 35bd eaec f0bd 7007 c63c
00000070: c4e2 d0bd 54c4 e73b f0d6 12bd 284f 5abd
-0.07573957 0.05147745 -0.0021861838 0.010113824 -0.05720876 -0.10761657 -0.00052549934 -0.06667981
-0.00967091 0.029168108 -0.01027824 -0.087761275 0.004931615 -0.07420061 -0.08213101 0.044161964
-0.037802413 -0.058104992 -0.033215813 -0.023732614 -0.027891899 0.06447445 -0.05672924 -0.07476765
-0.060838234 -0.04430527 -0.11763938 0.024173468 -0.10199502 0.0070729647 -0.03584951 -0.053298146

sequential_2/conv2d_8/Conv2D/ReadVariableOp f4 [64, 3, 3, 32]
00000000: 1d8e 243d 222c 70be 71d3 85be b2a3 47be
00000010: 9822 1b3c f969 9cbd 6cb1 8e3d b4af 49bc
00000020: 86da cebc 7460 88bd c6e0 0bbe 0567 06bd
00000030: 38d2 30be c229 f73d 31d5 c33c 9af7 afbd
00000040: 17e1 3dbe 49c7 97bc 9409 0fbe ef9c 92be
00000050: 849c e3bd b3f7 953d 26fc 8abd 846c 953e
00000060: 46eb 4f3e a337 26be 029a ad3c 6a77 01be
00000070: 5e46 c43e 7fc3 853d c2df f73c 865c b8bc
00000080: b751 9c3d 52fb 12be 1d8d 30be 264d 24be
00000090: 7a0a abbc 375b 2ebd 963c 0ebd e160 bd3b
000000a0: 2c9b 4dbc 98aa 9dbe b862 75bd e202 43be
000000b0: 2373 9abd 296e 4abe 0c20 a83d 84c9 db3c
000000c0: c17d eebd b415 a63e f97d 193e 017b 20bd
000000d0: 0fdc a7bd 7c43 09be 2e5c c2bb 6888 0a3e
000000e0: d5d3 fbbc 0cd3 6bbd 9b26 1b3e 035a fbbd
000000f0: 30c8 b93d bc6e 273e 8e01 4c3e 50c9 14bd
00000100: 30d2 973b 463d a7bd 2619 443d 8808 9fbd
00000110: 10e7 96bd 1626 533d 7eee 96bd d0e2 1f3d
00000120: e840 48bc 4b30 a2bd cc8c c6bc e819 1e3c
00000130: 7d76 9e3d 42f3 6b3d 309d 163d 0601 a5bd
00000140: 0581 943d 2256 3d3d cc97 d6bc 8c7b af3c
00000150: 9675 92bd 4021 98ba 236c a2bd 1245 693d
00000160: d8be a8bd f4b7 cd3c b29b 5d3d 3050 0bbd
00000170: c021 de3c e0dc d83c eb4d 91bd a58d a33d
00000180: ab81 f0bd e7ca 49be df85 103e 5598 08be
00000190: 90fe 0b3c eb8c 54bd 583f 1ebc b749 17bd
000001a0: 4721 5fbd d6f3 0cbd 7b15 ea3d 455a d43c
000001b0: 265e a33d 4753 a83d d3e2 543c 3d73 17be
000001c0: bf13 553e e44f 503d 92d6 fcbd a99d 1fbe
000001d0: 68cb e63d ac19 c2bd 5bec ebbd 287b 67bd
000001e0: d43d 96bd 999b 36bd 9990 47bd ae75 dfbd
000001f0: da15 3cbb 836a e2bd f73b 0d3d d6dd 49bd
00000200: 9c25 8a3d 217c d13d e108 183d 127b 243e
00000210: 37de 033d 9979 1abd 9705 8f3d 42be 293b
00000220: 15b2 95bd dc59 89be 378e 97bd 205c 70bd
00000230: e261 c73b b308 993e 1558 2c3e 2a6c 04be
00000240: a2ae c93c dd2d 183e ea23 86bc 6c4c ee3c
00000250: 0802 e73d 0c55 9cbd 7137 2b3c a291 953c
00000260: ffc4 a0bd 7e0d 32bd b963 3abe a6ee b9bd
00000270: adda 9dbd fbc6 e1bd 8bd0 92bc 79d7 0b3d
00000280: e831 2bbc 769f 623d 23db 99bd a2e2 2c3d
00000290: 0077 8e3b 10c3 57bd 186e 5fbc ba6c 123d
000002a0: 4cdd c3bc d038 d53b d018 dabb bb3e a1bd
000002b0: 4aa0 1f3d cc6c ab3c bac8 0a3d a30b a6bd
000002c0: d5a7 9a3d 70e0 20bd bdc1 953d e8ea 1f3c
000002d0: be48 8fbd 4c29 fcbc 8d12 903d e603 3cbd
000002e0: 8bb6 823d ec8c b33c 0014 7a3c 802a 99bc
000002f0: f64d 64bd e09d dbbc 6cca 953c 9436 88bc
00000300: 50fc 3abd 744f 903c 5051 c03b cc61 9c3c
00000310: 2b19 933d 8c97 ebbc 1ad8 123d c089 2bbc
00000320: 3b41 0bbd 0bce 6bbd 1bf9 42bd 7b32 91bd
00000330: a0b0 28bd 408d 053c e01a 35bd ab49 8d3d
00000340: c0c6 193d 5695 62bd a60c aabd 0087 94bb
00000350: 660f 6c3d d653 223d 30b5 1bbd d830 043c
00000360: 2b9b 50bd f455 99bc f225 6a3d 1609 3bbd
00000370: 108e 96bd 0a37 413d 816e 993d 964b 18bd
00000380: 39bb 953d 6c24 f4bc 7160 a83d 4a82 423d
00000390: 3373 953d 9be2 9cbd 9355 833d 16f8 40bd
000003a0: b318 97bd 9628 d0bc 36cf 09bd 85a0 9a3d
000003b0: 9268 6b3d 022b 6e3d 6a01 593d 2cd0 a93c
000003c0: 6319 913d b913 943d 60a0 d9bc a0b9 7bbd
000003d0: 2cda f43c 1ab8 5f3d d91f 843d 3386 a9bd
000003e0: f8f7 a2bd a03c 91bd 34d7 8b3c c054 b53c
000003f0: b068 173d 3676 153d 603a e3bc 9b5b 8cbd
0.040174592 -0.23454335 -0.2613788 -0.19496039 0.009468697 -0.076374 0.06967434 -0.012309957
-0.025250684 -0.06659022 -0.13659963 -0.03281309 -0.17267692 0.120685115 0.023905369 -0.08592148
-0.18542896 -0.018527644 -0.13968498 -0.28635356 -0.11113837 0.073226355 -0.06786375 0.29184353
0.20304593 -0.16232161 0.0211916 -0.12643209 0.38334936 0.065314285 0.030258063 -0.022505056
0.07632773 -0.14353684 -0.1724133 -0.16045055 -0.020879019 -0.042567458 -0.034725748 0.005779371
-0.012549203 -0.30794215 -0.0599086 -0.19044068 -0.07541492 -0.19768585 0.082092375 0.026829489
-0.116450794 0.32438433 0.14989461 -0.039179806 -0.0819627 -0.1340465 -0.005931399 0.13528597
-0.030740658 -0.057574317 0.15151446 -0.12273028 0.09071386 0.16350836 0.19922468 -0.0363248
0.0046332106 -0.08165984 0.047875546 -0.07765299 -0.073682904 0.051549993 -0.073697075 0.039034665
-0.012222506 -0.079193674 -0.024237059 0.009649731 0.077374436 0.057605036 0.036771 -0.08056836
0.07251171 0.04622472 -0.02619543 0.021421216 -0.07151334 -0.0011606589 -0.07930782 0.056950636
-0.082395256 0.02511213 0.05410356 -0.03401202 0.027115703 0.026472509 -0.0709494 0.07986001
-0.11743482 -0.19706307 0.14113568 -0.1333936 0.008544579 -0.051892202 -0.009658657 -0.036935534
-0.054475095 -0.034412228 0.11429878 0.02592195 0.07976942 0.08219009 0.012993532 -0.14790054
0.20808314 0.05085744 -0.123456135 -0.15587486 0.112692654 -0.09477553 -0.115196906 -0.056513935
-0.073360115 -0.044581983 -0.048721883 -0.109111175 -0.0028699548 -0.11055472 0.034481015 -0.049283825
0.06745455 0.10228754 0.037117843 0.16062573 0.032194342 -0.03771362 0.06983488 0.0025900756
-0.07309357 -0.2682637 -0.07400172 -0.058681607 0.0060846666 0.2988945 0.16830476 -0.12931886
0.024619404 0.14861245 -0.016374547 0.029089175 0.11279684 -0.07633409 0.01045023 0.01825792
-0.07850074 -0.0434699 -0.18202104 -0.09078722 -0.07707725 -0.11024281 -0.017921707 0.034141038
-0.01044891 0.055327855 -0.075125 0.04220832 0.004347682 -0.05267626 -0.013637088 0.03574822
-0.023909234 0.0065070167 -0.00665579 -0.07873293 0.038971223 0.020925902 0.033882834 -0.08107688
0.07551543 -0.03927654 0.07312343 0.009760596 -0.06996296 -0.03078141 0.07034788 -0.045902155
0.063824736 0.021917783 0.015263557 -0.018697023 -0.05573841 -0.02680868 0.018284999 -0.016627587
-0.04565078 0.017616011 0.005869068 0.019089602 0.07182535 -0.028758787 0.03585062 -0.010469854
-0.033997755 -0.057569545 -0.047600847 -0.070897065 -0.041184068 0.008151352 -0.044215083 0.06898817
0.03754306 -0.0553182 -0.08303194 -0.004532695 0.057631873 0.039630733 -0.03801459 0.008068286
-0.05092923 -0.018717743 0.057165094 -0.045662962 -0.07351315 0.04717163 0.0749178 -0.03718146
0.073111005 -0.029802524 0.0822152 0.047487535 0.07297363 -0.07660409 0.06412806 -0.047111593
-0.07377758 -0.025409978 -0.033644877 0.07550148 0.057472773 0.058146484 0.052979864 0.020729147
0.0708492 0.07230324 -0.02656573 -0.061456323 0.029889189 0.054618932 0.06451387 -0.082775496
-0.079574525 -0.070916414 0.01707039 0.022135139 0.036965072 0.036489688 -0.027737796 -0.0685341

sequential_2/conv2d_8/Conv2D_bias f4 [64]
00000000: 2674 2dbb 2899 ad3c 4203 cdbb d5c8 923b
00000010: a4a3 133a 4bdc 063b 0d1c 2d3c 82aa c2b7
00000020: 53ee 64bb 7258 a5bc 8ccc 0738 e33b f03b
00000030: a3dd 1a37 53a4 29bc cf13 f03c c10d 12bd
00000040: 947a 1a3a 7acf 66bc 9825 5eb8 5f6a 613c
00000050: cee4 73ba 76f3 0a3c 98a8 83ba 0000 0000
00000060: 65da a6bb 9371 a8bb 79f4 c639 590c 273c
00000070: 876f 9ebb e2cf 093c 3e37 36ba a2e6 963c
00000080: 986e 23bb a07c 213c 6bbe 38bd 5720 3e3a
00000090: 269b 6abb 2559 01b9 1f18 cb3b 9a26 03bd
000000a0: b81b a73a 25c8 ba3c 4851 353c 775e c33c
000000b0: 0f67 d83c 7e42 48bc e113 20bd 82d9 5fbb
000000c0: 3e52 61bc 0c2b 9fba 1ded 93b9 225c c63c
000000d0: 8d8e 4b3c d24b 82bc ea72 813b 0162 1b3c
000000e0: 3562 c73b 085a 81bc 772a c4bb b9ad 36bb
000000f0: 5a36 8ab9 3a45 4c3d a382 e73c dcd4 06bb
-0.0026466935 0.021191195 -0.006256492 0.0044795075 0.00056319893 0.0020578082 0.01056577 -2.3206001e-05
-0.0034932091 -0.020183776 3.2377007e-05 0.007331358 9.230719e-06 -0.010354119 0.02930632 -0.035657648
0.00058928994 -0.014087552 -5.2963936e-05 0.013758271 -0.0009303809 0.008480897 -0.0010044752 0.0
-0.0050919526 -0.005140492 0.0003794765 0.010195815 -0.0048350724 0.0084113795 -0.0006950981 0.018420521
-0.0024937745 0.009856373 -0.04510347 0.0007252744 -0.0035798042 -0.00012335608 0.006197944 -0.032019235
0.001274935 0.022800514 0.011066742 0.023848755 0.02641633 -0.012222884 -0.039081458 -0.0034156744
-0.013752518 -0.0012143566 -0.00028214688 0.024213854 0.0124241235 -0.015905295 0.0039504664 0.009483815
0.0060847052 -0.01579 -0.0059865075 -0.0027874543 -0.00026361906 0.049870707 0.028260535 -0.0020573651

sequential_2/dense_4/MatMul/ReadVariableOp/transpose f4 [256, 64]
00000000: 6924 1b3d 5dba 263d b679 d2bd 21a8 afbd
00000010: ab99 d8bc 01f8 e2bd 68a2 c03d 91c6 a4bd
00000020: ac84 0abe 84bf bf3d 010b fabc f828 03be
00000030: dd54 c1bd 997e 123e 1058 f1bd 59f4 a53b
00000040: 9ae9 053e 954b a03d e941 013e f63c 91ba
00000050: f7b3 b43d 1906 913b c54f b1bd 52a4 083e
00000060: 05a3 2e3d 5204 e1bd 0a68 8cbd 6990 093e
00000070: ea59 79bd 9975 b73c 3ab3 d4bd aae2 403d
00000080: d3c5 123e 2d5a 61bc f2cf 2ebe ab8f 4cbd
00000090: 5cfd 6cbd 3253 7e3d 06f5 b0bb ef65 79bb
000000a0: 086a 9e3d 1538 02bd be25 48bd 65dc ad3c
000000b0: 940b 073e 266b 6abd e5a4 91ba dd6d 4d3d
000000c0: f8a2 32bd fea1 8c3c 6ed7 903d db5e 13be
000000d0: a44b 66bd b59a ac3c 3033 eb3d 0a37 0bbe
000000e0: 344f fb3d cff4 693b b7bb 0f3d 50ea c53d
000000f0: c359 ab3d b48c 26be 7053 16be 0d68 693d
00000100: 102c afbc 3bd7 69bd 0704 d2bc 0b91 88bd
00000110: fc4e c0bd 69cb 30be 270e a43a f468 0bbd
00000120: b37c ffbb 11fa 8c3b 38e7 e93d ee89 ba3d
00000130: 0597 06be 31d4 d53b 7de8 cebd 5fbc 773d
00000140: 9b44 98bd a79c e03d 4f62 fb3d 4656 10bd
00000150: 810c 42bd cd05 05be c77d 053d 5010 26bd
00000160: 9585 b83c a2d6 043e 6395 c43d f063 d7bd
00000170: 6406 aebd 77a1 14be 0cef e23d 024f 21be
00000180: 4504 cdbd 60c6 f43d 135f 483d f62f a1bd
00000190: 94c9 933d 8c1c 83bd 3278 bc3c cccc 073e
000001a0: a547 a33d a707 2e3e 326b c93d 70ad 89be
000001b0: b2a7 b43d 3c0e f8bd eec7 183e d96e a8bc
000001c0: 4564 ddbd 2c4c 853c cb96 c23d 21f5 db3d
000001d0: 754d 28bd 2956 203e b182 b73d cabe 0fbe
000001e0: f95e 26be d961 61bd 5c44 dc3d 4d9f e5bd
000001f0: 7b12 083e 75d5 ad3c ef3f 393d d672 a6bd
00000200: f8ec 31bd 9128 31be 44f0 ca3d 8b98 a13d
00000210: fe87 0a3e d1d2 4cbd 9c67 413e 0957 d2bd
00000220: 1f7a a03d 0533 10bd 36dc 19be 66c6 14be
00000230: 90b1 383d 8fa5 96bd 9886 2f3c 4867 abbd
00000240: 27f0 673e d926 8b3c 1fb5 a5bd a7b9 bc3b
00000250: 21d5 d53d 3b61 e33d cbd9 d3bc 3fdc eebd
00000260: 2f75 863d 2fb7 1dbe 5f85 de3d 6e5e d93c
00000270: 32c6 14be fd1a 003c 2da4 36bd ec01 9abd
00000280: 102d dcbc 7cb3 0fbe 45dc 9e3c f54d 59bd
00000290: e486 31b8 c31c ffbd 078f a4bb 57df 5cbd
000002a0: 781d 843d 5d70 c4bd 5cf1 1abe 8a69 bf3d
000002b0: 5c66 35bd 6ed0 d33b 58e7 8fbd 99ae 43bd
000002c0: 1cfd 103e 2df4 6bbd 3000 18bd 8f9b e9bd
000002d0: 91c0 b0bc 62d4 cc3d 62b6 12be 1a13 bfbd
000002e0: b3b3 ccbd bc4c 5abe 5642 05be 3f8d 423d
000002f0: 535a 7b3e 1ec1 00be 25cd 88bd b37b d43d
00000300: dc79 c53d 6d2d 05bd 401c f53d bce0 43bc
00000310: dfae 033e d2ad 7dbd 93e1 183e c7fd 84bd
00000320: 129a f5bd 30cd 8ebd 7a6c 0cbe e6e7 0abe
00000330: 70e8 053c b784 523d 2f8a 333b 1a89 d63c
00000340: 901c e73c 22fc a7bb 4e52 09bd 2548 bf3d
00000350: bc72 a3bc 24fb 1c3c c88b ac3d 5e2a 14bd
00000360: 311f d03d 2313 bcbd 9994 843d 7d8f d8bd
00000370: d96e a43d 35bd d6ba 8171 a73d 0235 d6bd
00000380: 4bac a3bd 772e 1fbe 0696 08be 063c 263d
00000390: 79a1 603c 7ccf debd 8f38 f13d 1fbf 89be
000003a0: 9802 bdbd 59c0 87be 90e6 15be 5189 393e
000003b0: 1e0b 503d 6272 0ebc f8e6 9abd 1e4b e13d
000003c0: a2d9 71bd dfb3 93bd 852f 4fbd c023 8bbd
000003d0: 4568 80bd e5b7 f13d c83d c6bb cdb7 243d
000003e0: aa04 a13d f9f5 53be 3255 c9b9 74db 51bd
000003f0: a494 3a3e 929c 9fbd 07a6 c0bd 7056 02bd
0.03787652 0.040705074 -0.10277121 -0.0857699 -0.026440462 -0.11082459 0.094059765 -0.08045686
-0.13527173 0.093627006 -0.030522825 -0.12808597 -0.094400145 0.14306106 -0.11784375 0.005064529
0.13077393 0.07826916 0.12622799 -0.001108079 0.08823388 0.0044257757 -0.08657793 0.13343933
0.042635936 -0.10987152 -0.068557814 0.13433994 -0.060876764 0.022394942 -0.10385747 0.047091164
0.14333276 -0.01375441 -0.17071512 -0.0499417 -0.05785881 0.06209106 -0.005400303 -0.0038055142
0.077350676 -0.031791765 -0.04886412 0.021223256 0.1318801 -0.05723109 -0.0011111764 0.050153602
-0.04361245 0.017167088 0.0707234 -0.14391653 -0.05622448 0.021069864 0.114843726 -0.13595214
0.12270966 0.0035698896 0.03509113 0.09663832 0.0836673 -0.16264611 -0.14680266 0.056983996
-0.021383315 -0.057090025 -0.025636686 -0.0666829 -0.09390065 -0.17265095 0.0012516425 -0.034035638
-0.0077968477 0.004302271 0.114210546 0.09108339 -0.13143547 0.0065255393 -0.10102937 0.06048238
-0.074349605 0.10967379 0.1227461 -0.035238527 -0.047375206 -0.12990494 0.032590654 -0.0405429
0.022524634 0.12972501 0.09598806 -0.105171084 -0.08497313 -0.14514719 0.11080751 -0.15752795
-0.1001058 0.119518995 0.048918795 -0.07870476 0.07216182 -0.06401929 0.023006532 0.13261718
0.079726495 0.16995107 0.09834899 -0.26890135 0.08821048 -0.1211209 0.14920017 -0.020560669
-0.108101405 0.016271673 0.09501418 0.10740114 -0.041089494 0.15657867 0.08960474 -0.14037624
-0.16247167 -0.055024955 0.10755226 -0.11212025 0.132883 0.021219948 0.045226987 -0.08127372
-0.04343888 -0.17300631 0.09909108 0.078904234 0.1352844 -0.050005738 0.1888718 -0.10270507
0.07835793 -0.035204906 -0.1502541 -0.14528808 0.04509121 -0.073557965 0.010713242 -0.08369309
0.22650205 0.016986297 -0.08091187 0.005759436 0.10441042 0.111025296 -0.025860688 -0.11663102
0.0656532 -0.1540191 0.10865282 0.026534285 -0.1452873 0.0078189345 -0.044590164 -0.07519898
-0.026876956 -0.14033312 0.019392142 -0.05305286 -4.2325715e-05 -0.12456658 -0.005021933 -0.05392393
0.06450933 -0.09591744 -0.15131134 0.09346302 -0.04428707 0.0064640557 -0.07026547 -0.04777393
0.14159054 -0.05760591 -0.037109554 -0.114066236 -0.021576198 0.10001446 -0.14327386 -0.09329815
-0.099952124 -0.21318334 -0.13013586 0.047497984 0.24546175 -0.12573668 -0.06679753 0.10375156
0.096423835 -0.032514025 0.11968279 -0.011955436 0.12859677 -0.061933346 0.149298 -0.06493717
-0.11992277 -0.0697273 -0.13713256 -0.13565025 0.008173093 0.051396098 0.0027395596 0.026188422
0.028211862 -0.005126492 -0.033525757 0.09339932 -0.01995217 0.009581361 0.08425099 -0.036173217
0.10162199 -0.091833375 0.06473655 -0.10574243 0.08028955 -0.0016383292 0.08175946 -0.10459329
-0.07991847 -0.15545069 -0.1333848 0.040584587 0.013710373 -0.10879418 0.11778366 -0.26903626
-0.0922901 -0.26513937 -0.14638734 0.18118788 0.050791852 -0.008694263 -0.07563585 0.110006556
-0.05904544 -0.07212042 -0.050582428 -0.06793928 -0.06269888 0.11802653 -0.0060498454 0.04021435
0.07862218 -0.206993 -0.00038401183 -0.051234677 0.18220764 -0.07793535 -0.09406667 -0.031820714

sequential_2/dense_4/MatMul_bias f4 [256]
00000000: 701a 743c 92c5 0abd e4b0 92bc ea22 e5bc
00000010: 4a59 6a3d 4d78 41ba a084 833c e858 adbc
00000020: 5e31 863c 33c4 9bbb 5956 54bb c18a 54bb
00000030: 102b e1bc 5fc1 4ebc 9ce3 8dbc 921a 3cbd
00000040: d401 a63b 84ab 6bbc d486 c83a 03de 00bd
00000050: 6c22 8ebb c151 54bc 48eb f23c 2645 a53b
00000060: 6e89 4aba dc2f 3abb df61 dabc 32f7 3cbc
00000070: 958d d83c a05f e8b8 7376 8a3c 0ebe f8bc
00000080: 724b d639 b925 c03c ee3c 25bb 056c 9cbc
00000090: e1bd 623a 4254 bbbb eaac 8cba 55f5 d7bb
000000a0: f6b0 9c3b b42f 3a3d bf0a 06bd 6285 1d3c
000000b0: db09 43bc 7feb 48ba 3f71 193d 1d53 5dbd
000000c0: 47e4 fbbb 838a a33c 2f0e 74bb 9241 44bc
000000d0: 4da5 943b c9cf 493d 926c 1d3d 9998 86bc
000000e0: 1b1b bbbc f822 173d c572 55bc b8e6 54bc
000000f0: ba3a c2bc 29c2 c2bc cbb6 993c 92c0 29bb
00000100: 0e1f 80bc fd37 c83b cb84 0a3d 0681 0b3c
00000110: 3851 cebb 0a7c e0ba e9c6 54bd 787a bebb
00000120: f66f 123c 4997 253b 3be2 30bc a240 203d
00000130: 0dc4 afbc 957d b33b 0c95 3ebc c89c 54bc
00000140: ec02 f9bc 12c5 86bc c56c 323d 096c 043c
00000150: 8986 c53c 1f0c a3bc 7546 b0bc 00fb fa3b
00000160: c4be 25bd ce99 c1bb 0c97 e9bc 043e 42bc
00000170: 8e54 b4bc 7c5c 163c c850 803d cd96 fc3c
00000180: df5d b63c ba13 0b3d f4cf 07bd 278d 303b
00000190: 10e7 fb3b ca09 613d 5cfc 36bd 718f 02bd
000001a0: 59b4 afbc 4d81 a73b 6b6c 8fbb 53f8 6abc
000001b0: 281c bdbb 7bc5 a2bc 8edd 993c 48f3 bdbb
000001c0: afb3 4b3a 013b f6bb 10f1 56bd ab3b 2cbb
000001d0: e2ba f23c a82c c5bc b484 daba 9561 263c
000001e0: e9d0 1dbc a22a 7dbc aaf9 573b 50b5 11bd
000001f0: 0ffe a03c 57ea 3b3c b815 ad3d de10 21bc
00000200: ffd1 dfbb 0c4e 853c 059a 3abc 0ab5 0139
00000210: f53b eabb f940 e6bc cb95 b839 433f d93c
00000220: ef44 53ba 2cf0 373c 908b 14b9 8053 093d
00000230: b16d bf3b 26de 0c3d 5d85 01bd af49 77bc
00000240: 9396 babc 9398 773c d217 a5ba a9a7 e7bc
00000250: 1a6a d2bb 5887 76bc 3c06 4bbc 84cb 9c3b
00000260: bbb5 d7bc 03ac 2fbc aea3 15bd e0e8 16bb
00000270: dec3 13bc 1dd8 e23a 9da9 563c 4f35 d0bc
00000280: 5999 d9bc e651 97bc c8ee 09bc d359 bfbc
00000290: fe3f 0f3c 0f75 c73c 3239 043d b0a0 b13c
000002a0: 413c 30bb 70e0 c0bc 4658 e1bc 1d12 2fbc
000002b0: bbcb aebc e524 b63c 74db 32bd dda7 cebb
000002c0: 1d16 91bc 613c 93bc 8055 32bd cc63 2c3a
000002d0: fac4 c33b 35da 74bd cdf0 d4ba ed12 05bc
000002e0: 4b01 8cbd 3a5f c63c 2eb7 0bbd 1bce 8abc
000002f0: f029 4f3d 9c05 be3c 8f3d eebc 3407 b5bc
00000300: 2eb8 823a ff40 113d 915f 7a3c 1c15 b7bb
00000310: e8a1 2d3d 2762 8a3d 2e8b 903b 7ff3 b3bc
00000320: e4a7 2b3c de9a 33bd b939 37ba 2a0c 28ba
00000330: 73b2 f1bb 2122 1ebc 17f4 34b9 10e8 49bc
00000340: b023 ab3c 6f9f 32bb 83c6 a0bc d55c 0dbd
00000350: 003b 94bc 6aae bcbc 30ae d3bb e0cb 863b
00000360: c43b 123c 6099 df39 2d75 a93c 2ff5 433c
00000370: 3510 753d 6ae8 183d f61e 05bd 1472 d4bc
00000380: dc18 af3b 5809 ad3c f707 5a3d b2d6 e8bb
00000390: 9035 ff3c aa73 c93a 45b0 aa3d f3df b4bc
000003a0: 96a5 e73b eea7 123b d448 82bc 9fb0 2fbb
000003b0: 3f82 37bc e6ac 2c3b 443d 87bc b1a9 d2bc
000003c0: 2cbe 93b9 b0db e33b 363e d3bb 5bd0 c3bb
000003d0: 9dec 8abc 8784 c2bc cef5 01bd ceba 2abc
000003e0: c7ca 6cbc fdb4 5bbc 0d7a 6f3c c55e 03bc
000003f0: c4f7 e7bc 696f 6dbd 7305 1abd f38b d33a
0.014898881 -0.033879824 -0.017906614 -0.02797075 0.05721406 -0.0007380292 0.016054451 -0.021160558
0.016380962 -0.0047536134 -0.00324001 -0.0032431337 -0.027486354 -0.012619345 -0.017320447 -0.045923777
0.005066136 -0.014384154 0.0015298971 -0.031461727 -0.0043375995 -0.012958945 0.029653206 0.0050436435
-0.0007726167 -0.0028409874 -0.026657997 -0.011533545 0.0264347 -0.000110804336 0.016902184 -0.030364063
0.00040873472 0.023455488 -0.002521332 -0.019094476 0.000864951 -0.0057168314 -0.0010732685 -0.006590525
0.0047818376 0.04545565 -0.032725092 0.0096143205 -0.011904205 -0.0007664486 0.037461516 -0.05403434
-0.007687125 0.019963508 -0.00372399 -0.011978524 0.004536307 0.049270425 0.03843362 -0.016430186
-0.022840073 0.036898583 -0.0130278515 -0.012994461 -0.023709644 -0.023774223 0.01876392 -0.0025902134
-0.015639808 0.00611019 0.033818047 0.008514648 -0.006296303 -0.001712681 -0.051947508 -0.0058129393
0.008937826 0.0025267175 -0.010796125 0.03912414 -0.021455789 0.005477617 -0.011632215 -0.012976833
-0.030396901 -0.016451392 0.043560762 0.008082398 0.024112003 -0.01990324 -0.021517972 0.007659316
-0.04046513 -0.0059082275 -0.028514408 -0.011855606 -0.022012975 0.009177323 0.06265408 0.030833626
0.022261558 0.03395436 -0.033157304 0.0026939602 0.007687457 0.054940976 -0.044674262 -0.031875078
-0.021448301 0.0051118494 -0.004376938 -0.014341432 -0.0057711788 -0.019869557 0.018782403 -0.0057968237
0.00077706104 -0.007514358 -0.05247599 -0.0026280682 0.029630128 -0.024069145 -0.0016671629 0.010155101
-0.009632328 -0.015452059 0.0032955208 -0.035573304 0.019652395 0.011469445 0.08451408 -0.009830682
-0.0068304534 0.016272567 -0.01138926 0.00012369841 -0.0071482607 -0.028107153 0.0003520682 0.026519423
-0.0008059283 0.011226695 -0.00014166371 0.033526897 0.0058419337 0.034391545 -0.031621326 -0.015093251
-0.022776878 0.01511206 -0.00125956 -0.028278189 -0.0064213397 -0.015046917 -0.012391623 0.004785003
-0.026331773 -0.010722163 -0.03653305 -0.0023026988 -0.009018866 0.0017306838 0.013101962 -0.025416045
-0.02656238 -0.01847167 -0.008418746 -0.023358261 0.008743284 0.02434781 0.03228111 0.021683067
-0.0026891383 -0.02354452 -0.027507912 -0.010685471 -0.02133738 0.02223439 -0.043666318 -0.006306632
-0.01771074 -0.017973127 -0.04353857 0.000657615 0.005974409 -0.05977841 -0.0016246081 -0.008122188
-0.06836184 0.02421533 -0.03411024 -0.016943982 0.050577104 0.023196034 -0.029082088 -0.022098161
0.0009973103 0.035462376 0.015281574 -0.005587233 0.042390734 0.06757002 0.0044111228 -0.021966694
0.01047704 -0.043848865 -0.00069894973 -0.0006410504 -0.007376009 -0.009651692 -0.00017257068 -0.012323394
0.02089104 -0.0027255674 -0.019625908 -0.03451236 -0.01809454 -0.023032386 -0.0064599738 0.0041136593
0.008925382 0.00042648148 0.020685757 0.011960312 0.05982991 0.037331022 -0.03250023 -0.025933303
0.0053435396 0.02112262 0.053230252 -0.007105672 0.03115347 0.0015369554 0.08334402 -0.022079444
0.0070693 0.0022377926 -0.015903868 -0.0026808155 -0.011200487 0.0026348173 -0.016508706 -0.02571568
-0.00028179714 0.006953679 -0.006446625 -0.0059757656 -0.01695853 -0.023744835 -0.03172856 -0.010420514
-0.014452643 -0.01340985 0.0146165015 -0.0080182 -0.028316386 -0.057967577 -0.037602853 0.001613973

sequential_2/dense_5/MatMul/ReadVariableOp/transpose f4 [26, 256]
00000000: 6bb6 023e 97c7 313d 0dd6 103e 88f6 0c3e
00000010: 7613 0fbe 394d 1fbe 5130 a53b e2eb 003e
00000020: 814b a93d 4c5d 01bd 34b2 b63d d2db 093e
00000030: 8176 6fbd 05ec 0fbe 61e0 70bd 4f14 403e
00000040: 7df3 18bd 28c4 183e 3dc1 34be acbb 103e
00000050: 3d2d 0e3e da1e e1bd d863 57be 0350 ff3d
00000060: 1121 94bd 8ca3 aabd ba98 423d 36b9 33be
00000070: 2755 683e 0d85 933d cbf1 033c 4577 83be
00000080: 1ee2 88bd 8a84 29be ef62 35bd e0e8 ebbd
00000090: 9743 e1bd b5f3 9dbd d2fa ffbd 4a7d 2b3d
000000a0: 813e c33b 6348 93be 2b43 c43c 657e 4ebe
000000b0: 8e91 893c 81a5 933d 5861 20be adc8 a8bd
000000c0: 01b5 efbd 2360 83bd a605 3fbe 10d4 b03d
000000d0: 18ea 5abc 3db3 39be 85fb 05be d4aa ca3d
000000e0: 5c9c a2bd c3c4 de3d 69b6 67bd 1f4a ad3d
000000f0: f269 953d 14ff 103c 365f 853d 2103 0d3e
00000100: 69ec f43d 5f3c b83d 4ff6 39be 9680 29be
00000110: b961 a2bc 623f dc3d b6e4 79be e2cf 193e
00000120: a876 0fbe 2362 f0bd ec57 25be 0afb 3abe
00000130: a533 123e 255a d13d 4de2 473e f003 e23c
00000140: 40b7 093e 4e2c 873d 10d7 01be 6f3c 06bd
00000150: 7bd8 5ebe 56d2 363d 2e8b 29bd 996a 53bc
00000160: e2a9 a2ba 6e7c 3e3d a17d c63d 57fe 8abe
00000170: 4d99 163e 67b5 e2bb 2f58 febd 60fa fbbd
00000180: 0edb 583d df51 fd3d 3f2f ce3d 5240 053e
00000190: 3bdf 80b9 520e 78be 352d 58be e3ff 883d
000001a0: 8313 1c3e c783 11be 7a7b 0fbe 9397 0e3c
000001b0: de4f fb3d 5de0 30be 9ee1 003e 5c5e d6bc
000001c0: 3954 05be 1b4b e2bc 5779 be3d 3765 07be
000001d0: 6763 493e 88d4 e3bd d6d9 03bd 64e1 d83d
000001e0: 59e5 153e d6b7 08be 2d7b 473b d064 fe3d
000001f0: 7dda f43d c0fc 17be 313b 44bc f505 5fbd
00000200: 1c6d 343d a2dc 103e 2849 11be 0d28 8d3c
00000210: b15e ae3d da5e 993d 24c7 a23d 8af5 523d
00000220: 1cea f83d 1931 023c 5f38 963d c345 053e
00000230: 177e 293d 578f 633d 0ead 05be 7e31 683d
00000240: 3f9e a3bb 0167 bdbd 8895 c6bd 0a31 9b3d
00000250: f209 31be ea97 39bd 899a bf3d 0299 2abd
00000260: 32f7 e53d e27d e4bd 0bb0 01bd 5d22 d83d
00000270: 139e 6bbd f544 ae3d 6b0f 283e 8eb4 cf3d
00000280: 4007 043d 7994 87be a9df 8abd 63fa d93d
00000290: 79f1 52bd 7499 903d 547b 4dbd d66e 1f3d
000002a0: 0590 6dbd 7c88 00be 7add 1e3e 532c 0ebe
000002b0: b4c1 c83d de30 c8bd 9775 84bc 89e1 cfbd
000002c0: 9686 ee3d 4c8f c53d 9386 bebd c435 113c
000002d0: 9005 493c 1c87 25bc 4aa6 e13d 48a2 e43d
000002e0: 1f1e 1e3e 55c7 e6bc 36d4 1b3e 3092 31be
000002f0: 12cd 3abe 0a4b 123e 6e13 d53c 278c 82bd
00000300: 962d 16bd ddcb 133e 9342 e63c 83fd e2ba
00000310: 27eb 24be 4a6e 2f3e c265 0e3e 8b79 433d
00000320: 3776 c63d a413 f13c 1e19 dabb 93ea d1bd
00000330: dee8 ccbc 0adb 5f3d 1211 463e 49cd abbd
00000340: a576 fdbd 9d9a 48bc 65e6 c2bd 6fbf abbc
00000350: b81a 073e d556 1d3d ca04 9e3d f166 06be
00000360: 54aa 4b3e 3580 6f3d 61c0 213d 7f07 7d3d
00000370: f73f 80be aee0 8d3d 6add 9bbb cc89 a0bc
00000380: 223c 72bd 350b 16bd 2fb6 f13d a46a bd3d
00000390: daeb bcbd 817f 943b d766 9b3d 5544 163e
000003a0: 6d13 1dbd a951 a33c 54b9 bc3d 4c5b 093e
000003b0: 8f12 dd3d 4947 373d eda3 adbd 9f98 be3d
000003c0: 903a 9bbd c504 e7bc e7ed 003e fd31 e73d
000003d0: fbf8 14be 5f27 3b3d 2ee8 01be 59c4 023e
000003e0: e137 0fbe ff88 ec3d bf65 233d 7415 e63d
000003f0: 1713 273e 4b8a cb3c 1bb3 a23c 98ef 3f3e
0.127649 0.043403234 0.14144154 0.13765919 -0.13972268 -0.15556802 0.00504116 0.12589982
0.08266354 -0.031583115 0.08920708 0.13462761 -0.058462624 -0.14054878 -0.058807734 0.18757747
-0.037341584 0.14918578 -0.1765184 0.14134091 0.13884445 -0.109922126 -0.21034181 0.12466433
-0.072328694 -0.08331975 0.047508933 -0.17551121 0.22688733 0.07203112 0.008053253 -0.25676933
-0.066837534 -0.16554466 -0.044283804 -0.11519027 -0.1099922 -0.07712499 -0.12499012 0.04186753
0.005958379 -0.28766164 0.02395781 -0.20165403 0.016793039 0.07209302 -0.15662134 -0.08241401
-0.11704446 -0.06414821 -0.18654498 0.08634198 -0.013361476 -0.1813478 -0.13084228 0.09895864
-0.079399794 0.10877373 -0.056570444 0.08461403 0.07295598 0.008849878 0.06512301 0.13770725
0.11959154 0.0899589 -0.18160366 -0.16552958 -0.019821988 0.10754277 -0.24403653 0.15020707
-0.14010108 -0.11737468 -0.16146821 -0.18259826 0.14277513 0.10222272 0.1951992 0.027589768
0.1344881 0.06600247 -0.12679696 -0.032772478 -0.21762268 0.044634186 -0.041392498 -0.012903833
-0.0012410248 0.046505384 0.096919306 -0.2714717 0.14706917 -0.0069185975 -0.124191634 -0.123036146
0.05294328 0.12369131 0.10067605 0.13012818 -0.00024580382 -0.24224213 -0.21110995 0.066894315
0.15241818 -0.14210425 -0.14011946 0.00870313 0.12271093 -0.17273088 0.12586066 -0.02616804
-0.1302041 -0.027623704 0.093004875 -0.13222204 0.19666825 -0.111245215 -0.032190166 0.10589865
0.1463827 -0.13351378 0.0030438409 0.12421572 0.11955736 -0.1484251 -0.011977003 -0.05444904
0.044049367 0.14146665 -0.14188063 0.017231012 0.08514155 0.074887946 0.07948139 0.051503696
0.12154028 0.007946276 0.07334971 0.13014893 0.041380014 0.05555662 -0.13054296 0.056687824
-0.0049932296 -0.09248162 -0.096964896 0.07577713 -0.1728895 -0.045310892 0.09355647 -0.041649826
0.112287894 -0.11156823 -0.03166203 0.10553429 -0.0575238 0.08509246 0.16412131 0.1014186
0.032233477 -0.26480463 -0.06780941 0.106434606 -0.051499818 0.07060519 -0.050166443 0.03892406
-0.057998676 -0.12552065 0.15514174 -0.13884096 0.09802571 -0.09774946 -0.016169352 -0.10150439
0.11646764 0.09646472 -0.09303012 0.008862916 0.012269393 -0.010103013 0.11018045 0.11163765
0.15441178 -0.02817122 0.15217671 -0.17340922 -0.1824229 0.14286438 0.026010241 -0.06374388
-0.036664568 0.14433236 0.028107917 -0.0017317984 -0.16105329 0.17131916 0.13906005 0.047723334
0.096905164 0.02942831 -0.0066558262 -0.102498196 -0.025013383 0.05465225 0.1934245 -0.083887644
-0.12376145 -0.012243894 -0.095166005 -0.020965306 0.13193786 0.038412888 0.07715757 -0.13125207
0.19889194 0.058471877 0.039490107 0.061774727 -0.250488 0.0692762 -0.004756619 -0.019596957
-0.05913938 -0.03663178 0.11802327 0.09248856 -0.092246726 0.004531801 0.075879745 0.14674504
-0.038348604 0.0199364 0.09215036 0.13413733 0.107945554 0.044745717 -0.08478532 0.09306454
-0.07579529 -0.028200516 0.12590753 0.112888314 -0.14548104 0.045691844 -0.12686226 0.12770213
-0.1398616 0.115495674 0.039891955 0.112345606 0.16315876 0.024846217 0.019860795 0.18743742

sequential_2/dense_5/MatMul_bias f4 [26]
00000000: 8e1c d2bd 0305 adbd 2afe 95bc 4db3 dd3d
00000010: 65fa 43bd a490 953d c2d6 8d3d 18a1 d6bd
00000020: d3dc c83d c922 cebd 7ef4 ad3d 1081 7f3b
00000030: 94f7 743c dca5 013e babf dabb 2b9b 6a3d
00000040: 1dac 3fbe a630 dcbd 5ee2 91bc b81b 2e3e
00000050: bc8f b8bd c1bb c4bd 8bf9 98bd eeaf 123e
00000060: f528 85bd a6e2 1d3e
-0.102593526 -0.084482215 -0.018309671 0.108252145 -0.047846217 0.07302979 0.069257274 -0.10479945
0.09807744 -0.100652285 0.08493899 0.003898684 0.014951605 0.12660927 -0.0066756876 0.057276886
-0.18718 -0.107514665 -0.017808136 0.17002761 -0.0901179 -0.09606124 -0.074694715 0.14324924
-0.065019526 0.15418491
